model.tflite (tflite, 12128 bytes, 6 tensors)

sequential_2/dense_8/BiasAdd/ReadVariableOp f4 [5]
-0.008259354 0.0073737474 0.011212773 -0.016410733 0.018452762
00000000: 3e52 07bc 7a9f f13b c7b5 373c cd6f 86bc
00000010: 3f2a 973c

sequential_2/dense_7/BiasAdd/ReadVariableOp f4 [32]
0.013464019 -0.01408018 0.0085425535 -0.00084030745 0.012601164 -0.01834233 0.0 -0.008177733
0.0 0.0 -0.008032283 -0.008150059 0.017860023 -0.016641052 0.0 0.0033348815
0.0 -0.011783449 -0.011835557 -0.015637802 -0.012499442 0.0 0.005571814 0.0
-0.016893707 -0.0058250623 0.0 0.0 0.0 0.0 -0.012339975 0.0
00000000: 3098 5c3c 8eb0 66bc 11f6 0b3c 1448 5cba
00000010: 1d75 4e3c a742 96bc 0000 0000 e6fb 05bc
00000020: 0000 0000 0000 0000 d699 03bc d387 05bc
00000030: 2f4f 923c d152 88bc 0000 0000 078e 5a3b
00000040: 0000 0000 5e0f 41bc ede9 41bc d91a 80bc
00000050: 76ca 4cbc 0000 0000 c393 b63b 0000 0000
00000060: ac64 8abc 2ae0 bebb 0000 0000 0000 0000
00000070: 0000 0000 0000 0000 9b2d 4abc 0000 0000

sequential_2/dense_6/BiasAdd/ReadVariableOp f4 [64]
-0.0031007794 -0.012018266 0.0 -0.018220648 0.0 0.0 0.0 0.0
0.0 0.007358331 0.0 0.012436488 0.015473377 -0.021324478 -0.017508976 0.0052742125
0.0 0.0 -0.0069329054 -0.007592207 0.0 0.0 -0.010776574 0.0
0.011683683 -0.0067714597 0.0 0.0 -0.013186303 0.016624613 0.033519447 0.010916896
-0.005584558 0.0 -0.0076636444 -0.010437945 -0.0073570837 -0.022357216 -0.012810281 0.0
-0.008661598 0.01579476 0.0 -0.019544946 0.0064104404 0.0 0.0 0.0
0.0 -0.014817991 -0.0013293254 0.0 -0.024037119 0.0 -0.0074052704 0.011901682
-0.010595888 0.012681125 -0.010713379 0.0042387275 0.0 0.0 0.020481607 -0.029696263
00000000: 7236 4bbb 43e8 44bc 0000 0000 7843 95bc
00000010: 0000 0000 0000 0000 0000 0000 0000 0000
00000020: 0000 0000 271e f13b 0000 0000 69c2 4b3c
00000030: 0c84 7d3c acb0 aebc fc6e 8fbc 4dd3 ac3b
00000040: 0000 0000 0000 0000 6d2d e3bb 0cc8 f8bb
00000050: 0000 0000 0000 0000 3a90 30bc 0000 0000
00000060: eb6c 3f3c 1fe3 ddbb 0000 0000 0000 0000
00000070: 5d0b 58bc 5730 883c b04b 093d c8dc 323c
00000080: abfe b6bb 0000 0000 4f1f fbbb ea03 2bbc
00000090: b113 f1bb 7b26 b7bc 36e2 51bc 0000 0000
000000a0: 60e9 0dbc 0364 813c 0000 0000 b91c a0bc
000000b0: ac0e d23b 0000 0000 0000 0000 0000 0000
000000c0: 0000 0000 29c7 72bc c23c aeba 0000 0000
000000d0: 7ee9 c4bc 0000 0000 e9a7 f2bb 46ff 423c
000000e0: 609a 2dbc 7ec4 4f3c 2b87 2fbc 06e5 8a3b
000000f0: 0000 0000 0000 0000 0bc9 a73c 9445 f3bc

sequential_2/dense_6/MatMul f4 [64, 3]
0.1795212 0.114023454 0.1950587 0.13851237 0.17992015 0.19079049 0.027000725 -0.27624148
0.177733 -0.033889018 0.25398013 -0.23075087 -0.2495395 -0.23955613 0.039680958 0.04487604
-0.2467336 -0.11718087 0.16311663 -0.10650244 -0.16456349 0.079846054 -0.23671544 -0.073784724
0.1456477 -0.07594891 -0.23127505 0.15048318 0.18219176 -0.29247501 0.16351548 -0.022742927
-0.26593813 0.12560186 -0.009176685 0.08745131 0.049817305 0.1979425 -0.07627638 0.22218433
0.16474178 -0.18029153 -0.24933171 0.0526103 0.15897033 0.15760718 0.094504595 0.2439727
-0.26746148 -0.17851077 0.090354234 -0.291432 -0.26785767 -0.22288659 -0.060161285 0.2459808
0.17583546 -0.0001354158 -0.1259698 0.08698192 -0.07585822 -0.17418219 -0.02843836 0.004317522
-0.19397989 -0.23628971 0.11385371 0.024340034 0.26221243 -0.24295998 0.16201901 -0.13645646
0.0958579 0.23532458 -0.13884024 -0.14676015 0.2640035 -0.06593622 0.24885094 -0.11163418
-0.28393486 -0.15120311 0.022868127 -0.18474633 0.17423044 0.17471653 -0.08637051 0.22431518
0.18155728 -0.22130717 -0.2625047 0.18651636 0.12687126 0.2541445 -0.009686075 0.13939185
0.26997146 -0.19568841 0.21180965 0.083055556 -0.019155502 -0.29349193 0.12140089 -0.025447084
0.27703935 0.022267755 0.12291589 -0.030567965 0.06955442 0.084452786 -0.1633391 0.19494344
0.22737858 -0.13166986 0.07000554 0.050945923 -0.025242575 -0.16192642 -0.22345516 -0.13038015
0.1518549 0.046200383 -0.25926524 -0.123016514 0.29036802 0.28498548 -0.15068385 -0.21786124
-0.04478386 0.20835441 0.26574743 0.20961656 0.16645347 -0.21980092 0.019175442 -0.11142892
0.10867819 -0.17491251 -0.26805592 -0.14141332 -0.2597043 -0.24846756 -0.27032757 0.10326135
0.12580436 -0.122240484 -0.27367434 -0.011524696 0.17150968 0.23847036 -0.2420246 0.24231905
0.02624247 -0.169694 -0.22413552 0.21920228 0.22844985 0.20375891 -0.21929353 -0.11443165
-0.12837265 -0.28402314 -0.060638864 0.17708965 0.09783012 -0.2299071 0.23984869 -0.024244325
0.25242263 -0.23512387 0.12765616 0.2514338 0.255229 -0.058220565 -0.06649044 0.25151184
0.15015294 0.15767816 0.114412926 -0.2133039 -0.24060066 -0.28089118 -0.2279036 -0.22548398
0.06520891 -0.29125306 0.1513376 0.016338382 0.21131049 0.10129284 -0.27333376 0.18822984
00000000: 68d4 373e 2185 e93d 78bd 473e 30d6 0d3e
00000010: fd3c 383e 955e 433e a030 dd3c 866f 8dbe
00000020: a4ff 353e 36cf 0abd af09 823e f549 6cbe
00000030: 4887 7fbe 344e 75be 8088 223d f0cf 373d
00000040: bca7 7cbe 86fc efbd 0c08 273e f41d dabd
00000050: 5583 28be 5486 a33d 8865 72be 721c 97bd
00000060: ac24 153e 1a8b 9bbd 5ed3 6cbe 4318 1a3e
00000070: 7a90 3a3e 49bf 95be 9a70 273e 604f babc
00000080: 0b29 88be c69d 003e ce59 16bc ac19 b33d
00000090: 3b0d 4c3d 70b1 4a3e ca36 9cbd 4a84 633e
000000a0: 12b2 283e 589e 38be d050 7fbe e67d 573d
000000b0: 1ec9 223e c763 213e a08b c13d fbd3 793e
000000c0: b6f0 88be 87cb 36be a40b b93d 9336 95be
000000d0: a424 89be 623c 64be ae6b 76bd 64e2 7b3e
000000e0: 360e 343e 67fe 0db9 3afe 00be 9423 b23d
000000f0: 8e5b 9bbd d15c 32be 90f7 e8bc 007a 8d3b
00000100: aaa2 46be eef5 71be 222c e93d c064 c73c
00000110: b540 863e 80ca 78be 50e8 253e 3ebb 0bbe
00000120: 2651 c43d edf8 703e 232c 0ebe 4b48 16be
00000130: 772b 873e 9209 87bd c8d2 7e3e 76a0 e4bd
00000140: e95f 91be fdd4 1abe f055 bb3c 242e 3dbe
00000150: 7769 323e e4e8 323e 06e3 b0bd e1b2 653e
00000160: 27ea 393e 599e 62be 0467 86be 25fe 3e3e
00000170: 8aea 013e 3a1f 823e 58b2 1ebc bdbc 0e3e
00000180: b339 8a3e 8b62 48be a1e4 583e 0819 aa3d
00000190: 00ec 9cbc 9344 96be 08a1 f83d 6776 d0bc
000001a0: 1ad8 8d3e de6a b63c 53bb fb3d ab69 fabc
000001b0: 8c72 8e3d 95f5 ac3d 5d42 27be 419f 473e
000001c0: eed5 683e 77d4 06be 115f 8f3d acac 503d
000001d0: 84c9 cebc 0ad0 25be 6ed1 64be 6082 05be
000001e0: da7f 1b3e 9d3c 3d3d 6abe 84be 15f0 fbbd
000001f0: 1eab 943e 9ee9 913e de4c 1abe 0417 5fbe
00000200: 486f 37bd dc5a 553e 0c10 883e b9a5 563e
00000210: c772 2a3e 7e13 61be d115 9d3c d834 e4bd
00000220: ac92 de3d 441c 33be a03e 89be a7ce 10be
00000230: f6f7 84be 486e 7ebe 6068 8abe b07a d33d
00000240: dcd2 003e 3859 fabd 0b1f 8cbe 14d2 3cbc
00000250: 3ca0 2f3e 9331 743e 4cd5 77be 7c22 783e
00000260: 73fa d63c 44c4 2dbe c883 65be 9076 603e
00000270: c2ee 693e 2da6 503e 7c8e 60be 245b eabd
00000280: 1f74 03be 7b6b 91be 7560 78bd fd56 353e
00000290: 285b c83d c46c 6bbe e59a 753e 099c c6bc
000002a0: 8a3d 813e 50c4 70be 4cb8 023e eebb 803e
000002b0: 60ad 823e b078 6ebd 242c 88bd 29c6 803e
000002c0: b1c1 193e 6276 213e 5351 ea3d 566c 5abe
000002d0: 0560 76be f8d0 8fbe 905f 69be 46e5 66be
000002e0: 408c 853d 1f1f 95be 3ef8 1a3e 12d8 853c
000002f0: c761 583e 9f72 cf3d 67f2 8bbe 53bf 403e

sequential_2/dense_7/MatMul f4 [32, 64]
-0.037075832 0.055011496 -0.014787972 0.16270691 -0.10089743 0.19032913 0.14220273 -0.17422956
-0.061831653 0.17861731 -0.029096246 -0.07230824 0.2414766 -0.12179063 -0.17846544 0.17221978
0.1087333 -0.07540274 -0.22167511 -0.091189355 -0.15685123 0.067959726 -0.013182817 -0.037380636
0.16915089 0.1608939 -0.011163592 0.17316753 0.018129794 0.046594203 -0.050796974 0.209519
-0.09094896 0.031319022 -0.06306375 0.045442566 0.0039254115 0.16962348 -0.17889011 0.20692056
0.22454663 0.24045683 0.1230312 -0.065060966 -0.041233 0.10705638 -0.22966754 0.0281806
0.15056616 0.034540616 0.024500242 -0.21802765 -0.14018837 -0.17772812 -0.02840211 0.25561225
0.09537598 0.07747669 -0.07954656 -0.012153718 -0.23211205 0.020810902 0.0050756577 -0.21567968
0.07240065 0.13575283 -0.102086484 -0.032231316 -0.19047159 -0.16668367 -0.010206163 -0.23461676
-0.08009815 0.054601684 -0.00590384 0.06941911 0.16961019 -0.11675033 -0.09215853 0.18527599
0.12523979 0.088543296 -0.18771248 0.1895793 -0.016449928 0.12128395 0.11474943 -0.15281278
-0.05381961 0.19541638 -0.096949935 -0.13788635 -0.1421873 0.0925999 -0.17186546 0.07902915
-0.07654247 -0.013314545 -0.20099062 0.023191433 -0.047576673 0.005149623 -0.048852183 0.11379659
0.098359056 -0.10525409 0.037682474 0.09282844 0.15433231 0.0064920783 -0.20389038 0.16199207
-0.11695421 0.040101673 -0.14350244 -0.06768137 -0.118797354 0.036512733 0.23772 0.10175609
0.13040827 -0.24863656 0.11698204 -0.22176123 0.22521049 0.1902985 -0.11730235 0.20606348
0.23200867 0.0858383 0.19496942 0.108356036 -0.20282781 -0.15081769 -0.07524043 -0.02464515
-0.087941885 -0.1546224 -0.17504263 0.17873393 -0.040765554 -0.08287103 0.063407436 0.094356656
0.022429466 -0.15202403 -0.10349323 0.06610811 -0.111944556 -0.23445845 0.14375378 0.20829648
-0.22780567 0.2294042 -0.197155 -0.19453269 0.15006399 0.0406549 0.14377744 -0.067706995
0.15987234 0.19113469 0.14741749 -0.18265007 -0.05696577 -0.2473223 0.038402766 -0.13250172
-0.053346388 0.15471524 0.23533565 -0.10395681 -0.16500732 -0.16496855 -0.113128364 0.049226344
0.12698436 -0.06536117 -0.18196726 -0.04621184 -0.18443267 0.023906529 -0.02038332 -0.0263599
0.09892905 -0.1779586 -0.12551852 0.10877089 0.074344635 -0.05205983 0.09528847 -0.11999316
0.17227474 0.11288576 0.1635651 0.23149517 -0.0997138 0.24480045 0.1971122 0.18336737
0.12169564 -0.064861745 -0.027198315 0.26010832 0.082261026 -0.073072374 -0.0367737 -0.16931032
-0.13562196 0.0292719 0.24910273 0.19643413 -0.13009715 -0.16064334 -0.002529743 0.033968806
0.12268746 0.17461817 -0.033324182 -0.13010168 -0.18247053 0.091454566 -0.0020562874 -0.118439786
-0.0859857 -0.11224449 0.20559993 -0.055389963 -0.08759193 -0.014457297 -0.2098463 -0.025159001
0.2640721 0.107579134 0.09425646 0.14567468 -0.10078262 -0.17405403 0.19692045 -0.17168236
-0.052214026 0.2438263 -0.12247244 -0.17552346 -0.15859406 -0.17453325 -0.23859853 -0.02252988
0.20953898 -0.19754751 0.23673512 -0.1253724 -0.1552552 -0.063225985 0.15618248 -0.08687026
00000000: d4dc 17bd bc53 613d 4049 72bc a49c 263e
00000010: 50a3 cebd a4e5 423e 989d 113e 3c69 32be
00000020: 3043 7dbd 75e7 363e 405b eebc 5816 94bd
00000030: a445 773e 5e6d f9bd a5bf 36be 625a 303e
00000040: 90af de3d c06c 9abd cdfe 62be 7cc1 babd
00000050: 9c9d 20be 782e 8b3d befc 57bc 701c 19bd
00000060: e435 2d3e 5fc1 243e 80e7 36bc d452 313e
00000070: ef84 943c 90d9 3e3d 7d10 50bd 268c 563e
00000080: 7343 babd 6048 003d 9127 81bd fc21 3a3d
00000090: bda0 803b c7b1 2d3e f82e 37be fce2 533e
000000a0: 8def 653e 513a 763e c8f7 fb3d af3e 85bd
000000b0: efe3 28bd 6040 db3d f82d 6bbe 00db e63c
000000c0: 042e 1a3e 767a 0d3d bbb4 c83c a442 5fbe
000000d0: 8a8d 0fbe 5cfe 35be 8bab e8bc 9cdf 823e
000000e0: 7b54 c33d 19ac 9e3d 4fe9 a2bd 6320 47bc
000000f0: c8ae 6dbe a07b aa3c b451 a63b 22db 5cbe
00000100: cb46 943d ca02 0b3e b812 d1bd fc04 04bd
00000110: fc0a 43be 20af 2abe c037 27bc 603f 70be
00000120: 800a a4bd 04a6 5f3d 0075 c1bb 9b2b 8e3d
00000130: 4bae 2d3e cc1a efbd 9dbd bcbd fdb8 3d3e
00000140: dc3e 003e 3056 b53d b337 40be 1321 423e
00000150: 00c2 86bc b863 f83d c001 eb3d f47a 1cbe
00000160: f471 5cbd 3b1b 483e b08d c6bd 1432 0dbe
00000170: 8c99 11be 04a5 bd3d 80fd 2fbe 09da a13d
00000180: 4cc2 9cbd 4025 5abc 7cd0 4dbe f6fb bd3c
00000190: c2df 42bd 2bbe a83b 3a19 48bd 300e e93d
000001a0: 7970 c93d 758f d7bd f058 1a3d d61c be3d
000001b0: 4a09 1e3e 80bb d43b a4c8 50be 40e1 253e
000001c0: b085 efbd a741 243d 4ef2 12be 889c 8abd
000001d0: 074c f3bd 608e 153d df6c 733e 7f65 d03d
000001e0: bf89 053e 959a 7ebe 4894 ef3d 6015 63be
000001f0: 949d 663e 9cdd 423e 373c f0bd 4e02 533e
00000200: ae93 6d3e fecb af3d 10a6 473e c5e9 dd3d
00000210: 18b2 4fbe f46f 1abe a817 9abd a0e4 c9bc
00000220: e01a b4bd 5655 1ebe 603e 33be 0706 373e
00000230: c8f9 26bd 49b8 a9bd c2db 813d 103e c13d
00000240: 00be b73c 30ac 1bbe 42f4 d3bd b063 873d
00000250: 3043 e5bd e015 70be 3134 133e ac4b 553e
00000260: e445 69be efe8 6a3e 00e3 49be 9433 47be
00000270: 60aa 193e c185 263d 653a 133e f7a9 8abd
00000280: 93b5 233e d0b8 433e 9cf4 163e 9f08 3bbe
00000290: f054 69bd 0f42 7dbe 384c 1d3d 88ae 07be
000002a0: be81 5abd ac6d 1e3e d4fb 703e 4fe7 d4bd
000002b0: aef7 28be 84ed 28be d8af e7bd 90a1 493d
000002c0: 3008 023e 14dc 85bd a055 3abe a048 3dbd
000002d0: ebdb 3cbe a0d7 c33c ecfa a6bc b8f0 d7bc
000002e0: 509b ca3d c73a 36be ed87 00be 46c3 de3d
000002f0: 0042 983d b03c 55bd 9a26 c33d f9be f5bd
00000300: ca68 303e a630 e73d 9c7d 273e 120d 6d3e
00000310: c036 ccbd f8ac 7a3e c8d7 493e a8c4 3b3e
00000320: 903b f93d 3cd6 84bd 00cf debc eb2c 853e
00000330: 7878 a83d f8a6 95bd 05a0 16bd af5f 2dbe
00000340: 7ce0 0abe a0cb ef3c c914 7f3e 0726 493e
00000350: 3038 05be b07f 24be 0bca 25bb e022 0b3d
00000360: 9043 fb3d 1bcf 323e f07e 08bd 6039 05be
00000370: 8ed9 3abe 884c bb3d c7c2 06bb 8f90 f2bd
00000380: 4519 b0bd 70e0 e5bd ca88 523e 96e0 62bd
00000390: 6663 b3bd 4cde 6cbc f3e1 56be 401a cebc
000003a0: 7534 873e 7352 dc3d 8809 c13d be2b 153e
000003b0: 1e67 cebd 383b 32be 84a5 493e 80cd 2fbe
000003c0: 60de 55bd 9aad 793e d5d2 fabd 6cbc 33be
000003d0: 7b66 22be d8b8 32be 2c53 74be 9590 b8bc
000003e0: 6391 563e e549 4abe b16a 723e 9f61 00be
000003f0: 38fb 1ebe a07c 81bd 4dee 1f3e 09e9 b1bd

sequential_2/dense_8/MatMul f4 [5, 32]
-0.3574798 0.2265096 -0.3021634 0.29540285 0.38371658 0.4066528 -0.3608197 -0.049868505
-0.29011473 -0.12182817 -0.16383177 0.22246544 -0.09666838 0.059372958 -0.13410473 0.3544248
0.0634594 0.092412874 -0.2660005 -0.27526835 0.31214875 -0.23294887 -0.36826554 -0.0511477
0.12935145 0.33612612 -0.03742072 -0.23085605 0.081688166 -0.062296808 -0.1450146 -0.25967276
0.24377456 -0.20465899 -0.36014652 -0.1842672 0.13809364 0.12139386 -0.23666252 -0.005750329
0.3020354 -0.19987749 0.3695865 -0.03203221 0.07417491 0.34002408 -0.10299981 -0.062029466
-0.017999113 -0.009863673 -0.3475043 0.16656344 -0.35987082 -0.012812972 0.25136775 -0.005947709
-0.3003417 0.032771047 -0.23357235 0.35240644 -0.14248791 0.28916115 -0.114588484 0.25145763
0.06635672 0.32037568 -0.17005719 0.21631405 -0.1885408 0.36680177 -0.2730326 0.08841584
-0.029643357 -0.33159724 -0.3300925 -0.1851032 0.3273206 -0.2960146 -0.13944402 -0.035148226
0.28584272 -0.10500813 0.31589526 0.35010484 -0.11477679 0.087071925 -0.01520392 0.0040197372
-0.15965225 0.26351443 0.19273013 -0.29720926 0.24697012 0.32069612 -0.062031057 -0.016201258
-0.3625868 0.23385863 0.31948557 -0.25768054 0.04698293 0.13104098 0.08568573 0.37194103
-0.17108189 0.2059955 0.24825673 -0.02240229 -0.13041613 0.20135193 0.15649033 -0.29548135
-0.29435998 -0.034467198 0.24868287 0.18626688 0.2433909 0.17628819 -0.17852004 0.042645454
0.12661394 -0.20983662 0.39794528 0.12865812 -0.098481506 -0.08214423 0.31366393 -0.26727068
-0.011938759 -0.13583446 0.20576414 -0.1804928 0.4111007 0.024646314 -0.26402834 0.3478519
0.398871 -0.3177896 0.11684561 -0.012944712 0.23257631 -0.12514989 0.3265975 -0.085484624
-0.19132936 -0.31881082 -0.027379943 -0.36218762 -0.0060619456 0.22293514 -0.31937805 -0.23560008
-0.37182227 -0.39321703 0.08495182 -0.12885436 -0.0073910058 0.24565059 0.23123193 0.30211067
00000000: 9807 b7be 22f2 673e 29b5 9abe 0b3f 973e
00000010: 8076 c43e cc34 d03e 5cbd b8be eb42 4cbd
00000020: eb89 94be 0c81 f9bd 84c3 27be fbcd 633e
00000030: 12fa c5bd 0f31 733d c052 09be 2b77 b53e
00000040: 00f7 813d f642 bd3d 3831 88be f9ef 8cbe
00000050: f6d1 9f3e 268a 6ebe 4d8d bcbe 4080 51bd
00000060: b574 043e b918 ac3e 7846 19bd 8765 6cbe
00000070: 204c a73d f02a 7fbd b57e 14be d4f3 84be
00000080: 0aa0 793e 2092 51be 2065 b8be 8ab0 3cbe
00000090: 6b68 0d3e 589d f83d a957 72be 416d bcbb
000000a0: 62a4 9a3e afac 4cbe 713a bd3e 3534 03bd
000000b0: 04e9 973d a317 ae3e 90f1 d2bd 9c12 7ebd
000000c0: e072 93bc 3e9b 21bc 15ec b1be 9b8f 2a3e
000000d0: fd40 b8be 80ed 51bc 46b3 803e 00e5 c2bb
000000e0: 63c6 99be ef3a 063d 972d 6fbe 9e6e b43e
000000f0: 5ae8 11be ee0c 943e 5ead eabd 0ebf 803e
00000100: 08e6 873d 4808 a43e 7923 2ebe 6e81 5d3e
00000110: d710 41be 71cd bb3e eeca 8bbe 5d13 b53d
00000120: a0d6 f2bc 1dc7 a9be e201 a9be b18b 3dbe
00000130: 9196 a73e 3a8f 97be 6aca 0ebe 96f7 0fbd
00000140: fa59 923e 810e d7bd 06bd a13e f140 b33e
00000150: 1810 ebbd c452 b23d dd19 79bc 00b8 833b
00000160: e17b 23be 5deb 863e 0c5b 453e d02b 98be
00000170: bce5 7c3e 4832 a43e 4714 7ebd 80b8 84bc
00000180: faa4 b9be a378 6f3e 9d93 a33e b4ee 83be
00000190: 2c71 403d 9b2f 063e 007c af3d 0e6f be3e
000001a0: 1730 2fbe 7cf0 523e 0337 7e3e 0285 b7bc
000001b0: ce8b 05be 332f 4e3e 003f 203e 5549 97be
000001c0: 5ab6 96be 7a2d 0dbd b9a6 7e3e bfbc 3e3e
000001d0: 773b 793e e484 343e f5cd 36be 00ad 2e3d
000001e0: 16a7 013e 69df 56be 7cbf cb3e f4be 033e
000001f0: acb0 c9bd 3c3b a8bd 8f98 a03e b4d7 88be
00000200: c99a 43bc 3018 0bbe d6b3 523e 1bd3 38be
00000210: ca7b d23e 11e7 c93c b92e 87be a519 b23e
00000220: d238 cc3e 52b5 a2be c04c ef3d 0f16 54bc
00000230: 7c28 6e3e 4b27 00be ca37 a73e 9012 afbd
00000240: d8eb 43be 2c3b a3be e74b e0bc a870 b9be
00000250: 49a3 c6bb 1c49 643e 8585 a3be 2641 71be
00000260: 7d5f bebe be53 c9be 38fb ad3d 66f2 03be
00000270: 4030 f2bb d48b 7b3e 10c8 6c3e 40ae 9a3e
